…
2024-11-06 11:23:27,805 - INFO - batch_size: 32
2024-11-06 11:23:27,805 - INFO - num_workers: 4
2024-11-06 11:23:27,805 - INFO - save_interval: 5
2024-11-06 11:23:27,805 - INFO - hidden_size: 8
2024-11-06 11:23:27,805 - INFO - dropout: 0.1
2024-11-06 11:23:27,805 - INFO - device: cuda
2024-11-06 11:23:27,805 - INFO - seed: 42
2024-11-06 11:23:27,805 - INFO - resume: None
2024-11-06 11:23:27,805 - INFO - debug: False
2024-11-06 11:23:27,805 - INFO - 
Model Architecture:
2024-11-06 11:23:27,805 - INFO - 
Embedding Network:
2024-11-06 11:23:27,805 - INFO - EmbeddingNet(
  (encoder): Sequential(
    (0): ConvBlock(
      (conv): Conv2d(3, 64, kernel_size=(3, 3), stride=(1, 1))
      (bn): BatchNorm2d(64, eps=1e-05, momentum=1, affine=True, track_running_stats=True)
      (relu): ReLU()
      (pool): MaxPool2d(kernel_size=2, stride=2, padding=0, dilation=1, ceil_mode=False)
    )
    (1): ConvBlock(
      (conv): Conv2d(64, 64, kernel_size=(3, 3), stride=(1, 1))
      (bn): BatchNorm2d(64, eps=1e-05, momentum=1, affine=True, track_running_stats=True)
      (relu): ReLU()
      (pool): MaxPool2d(kernel_size=2, stride=2, padding=0, dilation=1, ceil_mode=False)
    )
    (2): ConvBlock(
      (conv): Conv2d(64, 64, kernel_size=(3, 3), stride=(1, 1), padding=(1, 1))
      (bn): BatchNorm2d(64, eps=1e-05, momentum=1, affine=True, track_running_stats=True)
      (relu): ReLU()
      (pool): MaxPool2d(kernel_size=2, stride=2, padding=0, dilation=1, ceil_mode=False)
    )
    (3): ConvBlock(
      (conv): Conv2d(64, 64, kernel_size=(3, 3), stride=(1, 1), padding=(1, 1))
      (bn): BatchNorm2d(64, eps=1e-05, momentum=1, affine=True, track_running_stats=True)
      (relu): ReLU()
      (pool): Identity()
    )
  )
)
2024-11-06 11:23:27,806 - INFO - 
Relation Module:
2024-11-06 11:23:27,806 - INFO - RelationModule(
  (conv_net): Sequential(
    (0): ConvBlock(
      (conv): Conv2d(128, 64, kernel_size=(3, 3), stride=(1, 1), padding=(1, 1))
      (bn): BatchNorm2d(64, eps=1e-05, momentum=1, affine=True, track_running_stats=True)
      (relu): ReLU()
      (pool): MaxPool2d(kernel_size=2, stride=2, padding=0, dilation=1, ceil_mode=False)
    )
    (1): ConvBlock(
      (conv): Conv2d(64, 64, kernel_size=(3, 3), stride=(1, 1), padding=(1, 1))
      (bn): BatchNorm2d(64, eps=1e-05, momentum=1, affine=True, track_running_stats=True)
      (relu): ReLU()
      (pool): MaxPool2d(kernel_size=2, stride=2, padding=0, dilation=1, ceil_mode=False)
    )
  )
  (classifier): Sequential(
    (0): Linear(in_features=256, out_features=8, bias=True)
    (1): ReLU()
    (2): Linear(in_features=8, out_features=1, bias=True)
    (3): Sigmoid()
  )
)
2024-11-06 11:23:27,806 - INFO - Starting training...
2024-11-06 11:49:14,304 - INFO - Epoch [1/100] Train Loss: 0.5874 Train Acc: 0.5000 Val Loss: 0.5836 Val Acc: 0.5000 Val F1: 0.6667
2024-11-06 11:49:14,312 - INFO - New best model saved!
2024-11-06 11:49:14,312 - INFO - Current LR - Embedding: 0.001000, Relation: 0.001000
2024-11-06 11:55:52,369 - ERROR - An error occurred during training
…
