…
2024-11-06 11:01:46,140 - INFO - batch_size: 32
2024-11-06 11:01:46,140 - INFO - num_workers: 4
2024-11-06 11:01:46,140 - INFO - save_interval: 5
2024-11-06 11:01:46,140 - INFO - hidden_size: 8
2024-11-06 11:01:46,140 - INFO - dropout: 0.1
2024-11-06 11:01:46,140 - INFO - device: cuda
2024-11-06 11:01:46,140 - INFO - seed: 42
2024-11-06 11:01:46,140 - INFO - resume: None
2024-11-06 11:01:46,140 - INFO - debug: False
2024-11-06 11:01:46,140 - INFO - 
Model Architecture:
2024-11-06 11:01:46,140 - INFO - 
Embedding Network:
2024-11-06 11:01:46,140 - INFO - EmbeddingNet(
  (encoder): Sequential(
    (0): ConvBlock(
      (conv): Conv2d(3, 64, kernel_size=(3, 3), stride=(1, 1))
      (bn): BatchNorm2d(64, eps=1e-05, momentum=1, affine=True, track_running_stats=True)
      (relu): ReLU()
      (pool): MaxPool2d(kernel_size=2, stride=2, padding=0, dilation=1, ceil_mode=False)
    )
    (1): ConvBlock(
      (conv): Conv2d(64, 64, kernel_size=(3, 3), stride=(1, 1))
      (bn): BatchNorm2d(64, eps=1e-05, momentum=1, affine=True, track_running_stats=True)
      (relu): ReLU()
      (pool): MaxPool2d(kernel_size=2, stride=2, padding=0, dilation=1, ceil_mode=False)
    )
    (2): ConvBlock(
      (conv): Conv2d(64, 64, kernel_size=(3, 3), stride=(1, 1), padding=(1, 1))
      (bn): BatchNorm2d(64, eps=1e-05, momentum=1, affine=True, track_running_stats=True)
      (relu): ReLU()
      (pool): MaxPool2d(kernel_size=2, stride=2, padding=0, dilation=1, ceil_mode=False)
    )
    (3): ConvBlock(
      (conv): Conv2d(64, 64, kernel_size=(3, 3), stride=(1, 1), padding=(1, 1))
      (bn): BatchNorm2d(64, eps=1e-05, momentum=1, affine=True, track_running_stats=True)
      (relu): ReLU()
      (pool): Identity()
    )
  )
)
2024-11-06 11:01:46,140 - INFO - 
Relation Module:
2024-11-06 11:01:46,140 - INFO - RelationModule(
  (conv_net): Sequential(
    (0): ConvBlock(
      (conv): Conv2d(128, 64, kernel_size=(3, 3), stride=(1, 1), padding=(1, 1))
      (bn): BatchNorm2d(64, eps=1e-05, momentum=1, affine=True, track_running_stats=True)
      (relu): ReLU()
      (pool): MaxPool2d(kernel_size=2, stride=2, padding=0, dilation=1, ceil_mode=False)
    )
    (1): ConvBlock(
      (conv): Conv2d(64, 64, kernel_size=(3, 3), stride=(1, 1), padding=(1, 1))
      (bn): BatchNorm2d(64, eps=1e-05, momentum=1, affine=True, track_running_stats=True)
      (relu): ReLU()
      (pool): MaxPool2d(kernel_size=2, stride=2, padding=0, dilation=1, ceil_mode=False)
    )
  )
  (classifier): Sequential(
    (0): Linear(in_features=256, out_features=8, bias=True)
    (1): ReLU()
    (2): Linear(in_features=8, out_features=1, bias=True)
    (3): Sigmoid()
  )
)
2024-11-06 11:01:46,140 - INFO - Starting training...
2024-11-06 11:01:54,007 - ERROR - An error occurred during training
Traceback (most recent call last):
  File "/home/francobertoldi/Documents/RelationNetworkDNI/main.py", line 559, in main
    trainer.train()
  File "/home/francobertoldi/Documents/RelationNetworkDNI/main.py", line 408, in train
…
